…
delta=0.001, dropout_probability=0, job_id='17666', quantize_dynamic=False, quantize_static=False, quantize=False, quantize4=False, quantizef8=False, prune_local=False, prune6=False, prune4=False, prune=True, n_gpu=1, per_gpu_train_batch_size=32, per_gpu_eval_batch_size=64, device=device(type='cuda'), start_epoch=0, start_step=0)
07/16/2024 16:56:09 - INFO - __main__ -   ******* Apply Pruning 0.2 ***********
07/16/2024 16:56:10 - INFO - __main__ -   Model(
  (encoder): RobertaForSequenceClassification(
    (roberta): RobertaModel(
      (embeddings): RobertaEmbeddings(
        (word_embeddings): Embedding(50265, 768, padding_idx=1)
        (position_embeddings): Embedding(514, 768, padding_idx=1)
        (token_type_embeddings): Embedding(1, 768)
        (LayerNorm): LayerNorm((768,), eps=1e-05, elementwise_affine=True)
        (dropout): Dropout(p=0.1, inplace=False)
      )
      (encoder): RobertaEncoder(
        (layer): ModuleList(
          (0-11): 12 x RobertaLayer(
            (attention): RobertaAttention(
              (self): RobertaSelfAttention(
                (query): Linear(in_features=768, out_features=768, bias=True)
                (key): Linear(in_features=768, out_features=768, bias=True)
                (value): Linear(in_features=768, out_features=768, bias=True)
                (dropout): Dropout(p=0.1, inplace=False)
              )
              (output): RobertaSelfOutput(
                (dense): Linear(in_features=768, out_features=768, bias=True)
                (LayerNorm): LayerNorm((768,), eps=1e-05, elementwise_affine=True)
                (dropout): Dropout(p=0.1, inplace=False)
              )
            )
            (intermediate): RobertaIntermediate(
              (dense): Linear(in_features=768, out_features=3072, bias=True)
              (intermediate_act_fn): GELUActivation()
            )
            (output): RobertaOutput(
              (dense): Linear(in_features=3072, out_features=768, bias=True)
              (LayerNorm): LayerNorm((768,), eps=1e-05, elementwise_affine=True)
              (dropout): Dropout(p=0.1, inplace=False)
            )
          )
        )
      )
    )
    (classifier): RobertaClassificationHead(
      (dense): Linear(in_features=768, out_features=768, bias=True)
      (dropout): Dropout(p=0.1, inplace=False)
      (out_proj): Linear(in_features=768, out_features=1, bias=True)
    )
  )
  (dropout): Dropout(p=0, inplace=False)
)
07/16/2024 16:56:11 - INFO - __main__ -   Size (MB): 498.658348
07/16/2024 16:56:17 - INFO - __main__ -   ***** Running evaluation *****
07/16/2024 16:56:17 - INFO - __main__ -     Num examples = 2732
07/16/2024 16:56:17 - INFO - __main__ -     Batch size = 64
07/16/2024 16:56:32 - INFO - __main__ -   torch.Size([64, 400])
…
